flask_api/Checkpoint.pth (torch, 2987 bytes, 6 tensors)

hidden1.weight f4 [10, 4]
000000 5e 64 6c be 3f 44 51 bf d7 4e 58 3f 80 c2 ba 3e
       -0.23085162 -0.8174476 0.844953 0.36476517
000010 11 55 07 bf e9 d4 ea bd c9 a5 ca 3e 20 3e 39 b9
       -0.52864176 -0.11466391 0.3957961 -0.00017666118
000020 00 56 c0 3e 12 4a 77 3f 9b 37 33 bf f3 2e 83 bf
       0.37565613 0.965974 -0.7000672 -1.0248703
000030 44 74 c5 3e 17 6b e3 bd c5 62 6c 3f ea 74 a4 3d
       0.38565266 -0.1110441 0.9233821 0.08030112
000040 8a 50 19 bf 35 af fb 3e 61 bf 32 be f3 6e 6b 3f
       -0.5988852 0.4915711 -0.17455818 0.9196617
000050 12 76 3c be 81 cf 85 be 12 89 7f 3e 0f c8 03 3e
       -0.18404415 -0.26134875 0.24954632 0.12869285
000060 d9 b9 f9 bd 85 7a 39 bf b4 23 98 bf 03 46 8f bf
       -0.12193651 -0.72452575 -1.1885896 -1.1193241
000070 7d 5c 5d be af 89 96 3f 05 a4 c0 3e 55 e4 ff be
       -0.21617313 1.1760768 0.37625137 -0.4997889
000080 17 1b 30 be f6 0a 50 bf 34 ae 00 bf aa 02 33 bf
       -0.17197834 -0.81266725 -0.5026581 -0.6992594
000090 1c fa 64 bf c2 47 ea 3d 9a 77 3c 3c dd a8 92 3f
       -0.89444137 0.11439468 0.011503125 1.1457783

hidden1.bias f4 [10]
000000 1c 40 7b 3e 54 e8 e7 3e 48 38 ad bd 70 8e 4a be
       0.24536175 0.4529444 -0.084580004 -0.19780898
000010 38 99 b1 be 18 c9 98 3d e4 5d c3 be 20 23 bb 3e
       -0.3468721 0.074602306 -0.3815757 0.36550236
000020 e0 74 da be 18 68 fd 3d
       -0.42667294 0.1237337

hidden2.weight f4 [8, 10]
000000 61 2e 38 3e 87 f8 f8 3e 25 24 91 3e b2 37 22 3f
       0.17986442 0.4862711 0.2834789 0.63366234
000010 e0 0b 24 bf 69 c2 18 be 4a 4b ff be 08 3e a8 be
       -0.6408062 -0.14917912 -0.49862128 -0.32859826
000020 10 60 3f 3f 6f 71 c2 3e 5f 3e 02 be 03 79 1a 3f
       0.74755955 0.37977168 -0.12719105 0.603409
000030 59 49 ad be 1b 05 c9 bd 71 00 89 3e cc 48 ba be
       -0.33845022 -0.09815427 0.2675815 -0.36383665
000040 81 14 a7 be 16 11 98 3e 4e 70 04 bf f5 eb 0d bf
       -0.3263283 0.29700536 -0.51733863 -0.55438167
000050 0e a0 9c 3e 0c 83 a0 bd 01 d7 22 3f 6f 38 0e bf
       0.30590862 -0.07837495 0.6360932 -0.5555486
000060 49 33 70 be e0 64 62 3e 2b ac cd 3e 99 88 ca 3e
       -0.23457064 0.22108793 0.40170416 0.3955734
000070 cb f5 3c bf c9 51 0b 3f 0c 91 11 be e5 eb ff 3e
       -0.7381255 0.5442167 -0.14215487 0.4998466
000080 25 f5 08 bf 09 30 a4 3e be eb 01 bf 03 f6 28 3e
       -0.5349906 0.32067898 -0.5075034 0.16500096
000090 2c 50 34 bf 8b d3 13 bf f8 5e 79 3d 3c 0f ac be
       -0.7043483 -0.57744664 0.060881585 -0.33605373
0000a0 ff 7b 1a bf 59 5a 35 3f 01 f5 37 bf ed b9 15 3e
       -0.60345453 0.70840985 -0.7185822 0.14621706
0000b0 53 93 62 3e b4 2c dc be 5e 3e d5 be cd 8a 36 bf
       0.22126512 -0.43002856 -0.41649145 -0.71305543
0000c0 87 4c 41 3d ac 79 ad 3e 70 b2 ec be ed 09 05 3e
       0.047192123 0.3388189 -0.46229887 0.12992068
0000d0 13 ab 0f bf 92 56 8c bc c8 d3 10 3f 42 33 8a be
       -0.56120414 -0.017131124 0.5657315 -0.26992232
0000e0 92 2c 1d be ff 3c 26 bf 34 df e9 be 3e 6d fd be
       -0.15349033 -0.6493682 -0.45678103 -0.49497408
0000f0 b7 c3 0b 3f 59 41 e1 3e ba 95 22 bf 89 20 fe be
       0.5459551 0.4399517 -0.63509715 -0.49634197
000100 50 6b 68 3e 29 a0 31 3f 76 0b 39 bf 43 8e 2c 3f
       0.22697186 0.6938501 -0.72283113 0.67404574
000110 cf 3c 16 3f fe f4 6c 3e c5 e1 a7 3e b8 6c b7 3e
       0.58686537 0.23140332 0.32789436 0.35825133
000120 ad 4a a1 be 31 da 04 be c5 33 15 3f d0 08 3a 3f
       -0.31502286 -0.12973858 0.5828212 0.72669697
000130 da 01 2d 3f 4b 29 77 be c2 bf 9b 3e 8c 90 1d 3f
       0.6758095 -0.24136846 0.30419737 0.61548686

hidden2.bias f4 [8]
000000 52 89 63 be 50 cc e6 3b 36 fb 17 3e 9a cd 23 3e
       -0.22220352 0.007043399 0.14841923 0.159964
000010 7c 75 0d 3e b8 2b 94 3d ed 7d a9 3d f6 74 89 be
       0.13814348 0.07234901 0.082759716 -0.26847047

hidden3.weight f4 [3, 8]
000000 cf 49 a8 3e 8e 10 e1 bd a1 1c c3 3e 10 6d ac 3e
       0.3286881 -0.10989486 0.3810778 0.33676958
000010 55 7a c6 be 7f a3 3f 3e a4 da 0d bf 7a 28 1b 3f
       -0.38765207 0.18714713 -0.55411744 0.6060864
000020 07 fd 15 bf 70 55 b5 be 97 90 2f 3f 05 54 5f be
       -0.58589214 -0.35416746 0.6858 -0.21809395
000030 01 ff fb be 98 62 c8 3e fd 30 a6 bd 91 cf 59 be
       -0.4921799 0.3913772 -0.081148125 -0.21270587
000040 27 de 17 3f d5 ec 5a be 8a 72 86 3e e7 0f 1d bf
       0.5932335 -0.21379407 0.2625926 -0.6135239
000050 6d db f8 be 1d 09 3b 3f 45 46 b7 be c2 93 0f be
       -0.4860491 0.7306078 -0.357958 -0.14021209

hidden3.bias f4 [3]
000000 c0 9a b3 be e9 3d a6 3e e3 4a 78 be
       -0.35079002 0.3246911 -0.24247317
